…
> Figure 17. Randomization comparison . Qualitative comparison of both Peg Insertion tasks in the ManiSkill and Meta-World domain and Door task in Robosuite. Visibly, ManiSkill presents the highest level of randomization, not only varying the initial state at reset but also changing the geometric properties of the objects.

19 Demonstration-Augmented Reward, Policy, and World Model Learning 

## E. Implementation Details 

E.1. Model Architecture 

Following TD-MPC2, all modules are implemented as MLPs. Here, as an example, we summarize our architecture for a single-camera Meta-World task using PyTorch-like notation: 

Architecture: TD-MPC2 World Model Encoder: ModuleDict( (rgb_frontview): Sequential( (0): ShiftAug() (1): PixelPreprocess() (2): Conv2d(3, 32, kernel_size=(7, 7), stride=(2, 2)) (3): ReLU(inplace=True) (4): Conv2d(32, 32, kernel_size=(5, 5), stride=(2, 2)) (5): ReLU(inplace=True) (6): Conv2d(32, 32, kernel_size=(3, 3), stride=(2, 2)) (7): ReLU(inplace=True) (8): Conv2d(32, 32, kernel_size=(3, 3), stride=(2, 2)) (9): ReLU(inplace=True) (10): Conv2d(32, 32, kernel_size=(3, 3), stride=(1, 1)) (11): Flatten(start_dim=1, end_dim=-1) (12): Linear(in_features=512, out_features=512, bias=True) (13): SimNorm(dim=8) ))Dynamics: Sequential( (0): NormedLinear(in_features=519, out_features=512, bias=True, act=Mish) (1): NormedLinear(in_features=512, out_features=512, bias=True, act=Mish) (2): NormedLinear(in_features=512, out_features=512, bias=True, act=SimNorm) )Reward: Sequential( (0): NormedLinear(in_features=519, out_features=512, bias=True, act=Mish) (1): NormedLinear(in_features=512, out_features=512, bias=True, act=Mish) (2): Linear(in_features=512, out_features=101, bias=True) )Policy prior: Sequential( (0): NormedLinear(in_features=512, out_features=512, bias=True, act=Mish) (1): NormedLinear(in_features=512, out_features=512, bias=True, act=Mish) (2): Linear(in_features=512, out_features=14, bias=True) )Q-functions: Vectorized [Sequential( (0): NormedLinear(in_features=519, out_features=512, bias=True, dropout=0.01, act=Mish) (1): NormedLinear(in_features=512, out_features=512, bias=True, act=Mish) (2): Linear(in_features=512, out_features=101, bias=True) ), Sequential( (0): NormedLinear(in_features=519, out_features=512, bias=True, dropout=0.01, act=Mish) (1): NormedLinear(in_features=512, out_features=512, bias=True, act=Mish) (2): Linear(in_features=512, out_features=101, bias=True) ), Sequential( (0): NormedLinear(in_features=519, out_features=512, bias=True, dropout=0.01, act=Mish) (1): NormedLinear(in_features=512, out_features=512, bias=True, act=Mish) (2): Linear(in_features=512, out_features=101, bias=True) )] Learnable parameters: 5,448,748 Discriminator Architecture: Discriminator( (nets): ModuleList( (0): Sequential( (0): Linear(in_features=512, out_features=32, bias=True) (1): Sigmoid() (2): Linear(in_features=32, out_features=1, bias=True) ))

20 Demonstration-Augmented Reward, Policy, and World Model Learning 

E.2. Hyperparameters 

Most of the hyperparameters remain unchanged from our backbone algorithm, TD-MPC2. Here, we list some of the most relevant to our method and highlight the ones that are unique to our approach. Please refer to the TD-MPC2 paper (Hansen et al., 2024) for a complete list of hyperparameters.  
…
